src/MNISTViewer/model.onnx (onnx, 100912 bytes, 8 tensors)

1 f4 [10, 1, 5, 5]
00000000: bb6e 4b3e d265 ddbd ee38 aebd 02e9 bf3d
00000010: a11c 633e 1533 0d3a 499e 003d b043 ad3e
00000020: a397 b03e eb01 473d 97d2 483e 3cff 993e
00000030: 833f aa3d d9e6 513e db60 9a3e 0a1c 2ebe
00000040: 57d0 09bd 29c4 6abe 8d18 4fbe 0dcd 0bbe
00000050: 83db bfbd ddd1 0bbe beeb cbbe 4b22 ddbe
00000060: 5573 883c 63d3 fabc fcac 6ebe 7f88 1bbe
00000070: aa91 13bf e333 e9be 452d a93d 1901 fe3d
00000080: 790b 7fbe 5ba0 d4be 1c48 eebe b65f 7e3e
00000090: 9f31 bf3d ca21 983d 947f b93c cb8b 89bd
000000a0: 126f a03d eec6 8c3e 9cdf bf3e f8fe a13e
000000b0: 32f7 983e c74c 953e 5944 ac3d d4f0 a93d
000000c0: cd93 413e e0d0 663e 2c3e 0b3e 8d31 0cbe
000000d0: 2510 aabe b42e 523c 66f2 8f3e 78cf 4ebe
000000e0: 4e7b d6bb 2fe7 4abe d106 55be 7de5 853e
000000f0: d589 5a3d a802 98bd a495 a4be dcef 30be
00000100: 35d2 853e 4c9c 163e e103 c9bd 272e 8c38
00000110: dd95 453e 765f 903e 4a5b 3cbe 5011 e33d
00000120: 1672 93bd 4366 823d 39cd ab3e 0ff0 90bd
00000130: 8b05 cbbd 6bf6 e7be b36e c3be f07b 00bd
00000140: d992 fcbe f115 82bf faff 05bf 63ca abbe
00000150: e49f 96bc f6cd fdbe 9a26 eabe 5bae d5bc
00000160: c3bf d13d fd3e 513e 5117 0ebf fbf8 b9be
00000170: f316 8a3d 8d04 1c3e b7b5 083f 5809 9dbe
00000180: 2831 80bb 04b2 e03e 9cca fd3e d1a1 083f
00000190: 2e57 2abe 37f2 2abd 89a8 073e b8a9 963d
000001a0: 4535 723e 4f97 acbd 21f3 063e 34ac 783e
000001b0: b0c3 aa3e cb23 efbb 4222 a33d 0b88 44bd
000001c0: b4ac 873e 42fb b0bc df01 cabd 523d 3d3e
000001d0: fc99 0b3e 6853 2d3e 02b2 9d3e 3fac 113e
000001e0: 465c ae3d 486c d8bd b167 e43d f852 3c3c
000001f0: 8c31 4a3e 6b84 b13e 5ead da3e d964 983e
00000200: 8927 8b3e 383c a63e f3da 3a3e dbfb c33d
00000210: 492a 873e fcd0 d13e 9967 073e a333 16be
00000220: b474 23be fdce a8bd cf8a 7a3d 1a6a 82be
00000230: 32fa dbbe 1717 1abe 2178 fcbe a3cf 10bf
00000240: 9d4f 86be 69ce 69be 8806 39be b370 9cbd
00000250: b302 67be 4db9 c7bd 9262 cdbd 4092 003e
00000260: f81e 653e 332c ce3d 8d74 543e 0c40 7dbd
00000270: b3ba b03e c11c 653e 9ed8 6d3e e571 a63e
00000280: 6da9 943e 28de 4cbd 0f94 a5be 1945 c4bc
00000290: 1868 293e 13c5 113e 398b 2b3d ec1f 52be
000002a0: bb9f f63b 6087 753d a450 4fbe 2574 9abe
000002b0: 68a8 89be c156 07bd 2e43 4c3e 1501 3e3e
000002c0: 5621 fd3d 674a b03d c726 5fbe 6626 6ebe
000002d0: a747 9b3e 60c5 2b3e 604d b2bd f4f2 ee3d
000002e0: d78d 2ebd 8646 603e 337c 023e 7001 153e
000002f0: 5939 2b3e 09ee c93e b0b8 4abe e325 d63c
00000300: 560b 9fbd 7727 b43d fd2c c83d 25c4 673d
00000310: 2702 62bd 1110 4ebe 0b28 9fbe 87eb 9cbe
00000320: dcb1 1d3e 3900 463e 7c38 a83d ee7f 93bd
00000330: 114d 8d3d a511 fcbc ef6d ba3d ceca dc3b
00000340: 235d 18bc 6eb6 54be 5a07 df3b 5729 7c3e
00000350: ac7e 193e 9e57 063e 46a9 963c 5c5c c3bc
00000360: e250 d53e 7fd8 533e 8404 683c 8cbf babe
00000370: 8694 5e3e 0691 c13e bc37 773e b0ef 15be
00000380: c288 d0be 2f45 bd3e e142 7c3e 9c1b 9b3e
00000390: abe6 29be 8abd 2fbe 9693 083e 85d7 473e
000003a0: 7626 073e f33c 93be 3437 0ebf b544 553e
000003b0: eb76 c13e 6128 6e3d 0cd0 f6be 7565 1dbf
000003c0: 72b4 b13e 537b 963d 2007 1fbd e935 30bf
000003d0: 14c3 12bf c071 cd3e 2c80 3ebc 8ca8 8cbd
000003e0: e7e9 33bf abec 5ebe
0.19866459 -0.10810436 -0.08506952 0.093706146 0.2217889 0.0005386335 0.031400952 0.33840704
0.3449069 0.048585813 0.19611584 0.3007754 0.08312895 0.20498218 0.3015202 -0.17002884
-0.033645954 -0.22926392 -0.20224209 -0.1365244 -0.093680404 -0.13654275 -0.39828295 -0.43190226
0.016656557 -0.030618375 -0.23308176 -0.15188788 -0.5764414 -0.455474 0.082605876 0.12402553
-0.2490672 -0.41528592 -0.4653939 0.24841198 0.09335636 0.0742832 0.022643842 -0.067161165
0.07833685 0.2749552 0.37475288 0.31639838 0.29876095 0.2916014 0.08411474 0.082978874
0.18904038 0.22540617 0.13597935 -0.13690777 -0.33215442 0.012828518 0.28114623 -0.2019633
-0.006545461 -0.19814752 -0.20803382 0.26151648 0.053354103 -0.07422382 -0.32145417 -0.17278999
0.26136938 0.1470806 -0.09815193 6.684317e-05 0.1929545 0.2819783 -0.18394199 0.110872865
-0.071994945 0.06367161 0.3355501 -0.070770375 -0.099131666 -0.4530519 -0.38170394 -0.031368196
-0.49330786 -1.0162946 -0.52343714 -0.33552846 -0.018386789 -0.49571198 -0.45732576 -0.026084116
0.10241654 0.20434184 -0.5550433 -0.3632277 0.067426585 0.15236111 0.53402275 -0.3067119
-0.00391211 0.43885815 0.4956864 0.5337191 -0.16634819 -0.0417349 0.13247885 0.0735659
0.23653133 -0.08427297 0.13178684 0.2428444 0.33352423 -0.007297968 0.079655185 -0.047981303
0.2649895 -0.021604184 -0.09863638 0.18480423 0.13632959 0.16926348 0.30799872 0.14225863
0.085136935 -0.10567528 0.1115259 0.011494391 0.19745463 0.3467134 0.42710394 0.2976444
0.271786 0.32467818 0.18247585 0.09569522 0.2639945 0.40979755 0.13223113 -0.14668135
-0.15962487 -0.08242605 0.061167534 -0.25471574 -0.4296432 -0.1504787 -0.493104 -0.5656683
-0.26232615 -0.22832645 -0.18068898 -0.07638683 -0.22559623 -0.0975214 -0.100285664 0.1255579
0.22375095 0.10067024 0.20747586 -0.061828658 0.3451744 0.2237425 0.23227164 0.3250877
0.29035512 -0.050016552 -0.32339522 -0.02395873 0.16543615 0.14235334 0.04188082 -0.2051999
0.0075263656 0.059943557 -0.20245606 -0.30166736 -0.26886296 -0.03304172 0.19947502 0.185551
0.12359874 0.08607941 -0.21792136 -0.23256835 0.30328104 0.16774511 -0.08706164 0.116674334
-0.042615738 0.21901903 0.1274269 0.1455133 0.16721095 0.3943942 -0.19797015 0.026141113
-0.07765834 0.0879659 0.09774206 0.056583542 -0.055177834 -0.20123316 -0.31085238 -0.30648443
0.15399879 0.19336022 0.082138985 -0.07202135 0.06899465 -0.030770132 0.091029994 0.0067380434
-0.009299549 -0.20772716 0.0068062963 0.24625145 0.14989728 0.13119361 0.018391263 -0.023847751
0.4166327 0.20688055 0.014161233 -0.36474264 0.21736345 0.37805957 0.24142355 -0.14642215
-0.40729338 0.36966845 0.24634887 0.30294502 -0.16591899 -0.17162147 0.1333755 0.19515808
0.13198265 -0.28757438 -0.55552983 0.20826991 0.3778604 0.058143977 -0.48205602 -0.61482936
0.3470798 0.07347741 -0.038825154 -0.6883226 -0.57328916 0.40125847 -0.011627238 -0.06868085
-0.7027878 -0.21769969

2 f4 [10]
00000000: 54e6 33bd a95c 44bc 8d16 a3bd 7fa9 203e
00000010: 28b7 babc 0f4c c63d c086 25bd 9a6e f2bc
00000020: 1181 58be bcca 873e
-0.04392083 -0.0119849825 -0.079632856 0.15689658 -0.022792414 0.09682476 -0.04041171 -0.029593755
-0.21142985 0.26521862

3 f4 [20, 10, 5, 5]
00000000: e3a4 2d3e 37f1 a03d dace 18be d62b 08bd
00000010: 1eda f5bc c39a 34bd aa6f 79bc ac2b 8fbc
00000020: 862b 913b e305 473d 6138 993c 5ef1 dd3d
00000030: 4403 b53c 523c 633d 6621 233e 3adf 46bd
00000040: c31c 6cbd a074 58bd 785c 62bb 55c9 0dbe
00000050: 6f6c 313c 6d8b 16bd f308 babd 2190 16be
00000060: da73 b8bd f849 adbd 6878 8ebd 00dd 91bd
00000070: 8254 0abd dfd0 af3d 4ecc e83c 1d69 7f3b
00000080: e30f e43b a4a0 603d cec0 7fbd 711b be3d
00000090: caf8 7f3c e956 603d 46db 91bd 2f0c 84be
000000a0: 8f4d 043e bfb2 803e 8e44 bdbc a089 b53d
000000b0: 3b92 9b3d 79fb 523e aad9 d33d 5bf1 9f3c
000000c0: fb6e 393d 4bf9 c8bd da97 b9bc 7811 bc3c
000000d0: b7c3 933c 56b5 283d 5da0 003d 80ad a13d
000000e0: 3e77 b63d 6f03 553d 3864 a4bb 399e bebd
000000f0: c187 a7bd 7cc3 debc 5b98 a5bd a6a5 b7bd
00000100: 7d5b c8bd 16b7 a9bd d438 9c3c 41eb 21be
00000110: a00c fdbd 8410 d7bd c61d 333d 3205 a93b
00000120: b06d 603c c81e d5bd e755 23be 8e97 a8be
00000130: 5ee3 96bd 7759 9c3d 65a2 a03e a2a6 823e
00000140: 9f28 02be 4c93 21bd a464 1d3e 7dd4 873e
00000150: f741 423e c2d2 08be 2254 37be 5eeb 5c3e
00000160: dc3d cf3d 6773 a93d 7c37 4fbe 2d4e 2ebe
00000170: b043 91bd ab1d 8e3d f04b ab3d 570e 22be
00000180: 1d7f a6bd 8078 063b 0e55 a43d 4deb 83bd
00000190: b578 853d 563d abbc 6606 753d 1c9b 103d
000001a0: 8615 f7bb b185 22bd ca5e cfbd 2642 fdbb
000001b0: fb08 5fbd d219 4bba f015 2dbd 0daa 6d3c
000001c0: 987f 0f3d 2c5a 96bd dd94 d8bd 2a80 95bd
000001d0: 2f73 e2bd 48e0 08be d809 dfbd 09a5 0ebe
000001e0: 2a6e 0ebd d367 f6bc d020 e3bd c495 adbd
000001f0: a2e1 a9bd a96e 113e d67c 05bc 5cf0 a6bd
00000200: 1f73 f9bd 3e97 31be f929 5abc cb1a 3b3d
00000210: 7b61 14be 8cb8 6b3c 532a 063e ee2b 743d
00000220: 4e09 b63d d267 2d3e b9f7 1f3e 6883 493e
00000230: 51fb ef3d b01a 543e 341e 753e 7c90 e63c
00000240: c54e 813c b23f 6dbb 2712 92bd 0071 bcbc
00000250: 2f8b 34bc 5734 60bc 3246 f23d 692e be3c
00000260: 8546 c33a 28bb 93bd 44d2 83bd f520 4cbd
00000270: f7fc 773c bc52 d8bd 3e57 e03c 9593 bd3d
00000280: 6e0e 14bd 7749 65bb d394 d03c 1e6c b33c
00000290: e9f3 313d 149a b93c 4741 2fbd 30a6 c0bd
000002a0: 1d63 35be 44b3 9cbe 274c 37bc c69e 503c
000002b0: 71c7 0dbe dd48 b1bd d265 49be 3813 543e
000002c0: f5a2 3cbd 98b8 8dbc 1374 a53c 2ddc 3bbc
000002d0: 38fc b13c e2a6 b3ba 5f22 073d e61d 243d
000002e0: 3971 993d 896c c23d 1579 dc3d ce92 fb3c
000002f0: b025 0f3d ef4a 673c 9197 1b3d b19c 09bd
00000300: 7645 a1bd 3be3 8fbd 5375 dabd ebbc 053d
00000310: c096 cebd a9f3 91bd 202b 0abe 01fe f7bd
00000320: 8fcf 053d 6407 823d 6ac4 0dbd 491d 17bd
00000330: 4fca aa3d 2eac 33bd 0a08 95bd d313 4a3d
00000340: 29b4 983d 44e4 87bd 275b 86bd 7ece 00be
00000350: 5714 2fbe 32b6 febd e553 1cbe 305e acbd
00000360: da82 9abd 740b acbd d124 6dbe 043e 1cbe
00000370: 1295 a2bd 3db2 8cbd 134a d53c 7176 99bd
00000380: fac2 19be 589a d23d f03b 5ebc 69cc 843d
00000390: 9f2f c03d 60b0 c53d 2593 6ebe c74a 0fbd
000003a0: fa7a 303d 24a7 0cbc 28aa 463d e3a2 94be
000003b0: ae04 06be 488f 3c3b 91b9 b5bc 1d1b a43c
000003c0: e895 83be ac97 e7bc f2ff aabc 265a 6c3d
000003d0: 6a03 02be e68a 88be c2cf 2cbe 9731 ba3d
000003e0: 45f1 5c3d fd25 353b bd9d fa3b 300b 0f3e
000003f0: 089c 6eba d09d eebd 7217 3dbd 368f a73d
0.1695743 0.07858508 -0.14922658 -0.03324493 -0.030011233 -0.044092905 -0.015224377 -0.017476879
0.004430237 0.0485896 0.018703641 0.10837053 0.022096284 0.055477448 0.15930709 -0.04855273
-0.057644617 -0.052845597 -0.003453998 -0.13846333 0.010829075 -0.03675406 -0.09083738 -0.14703418
-0.09006472 -0.08461374 -0.069565594 -0.071222305 -0.033772 0.08584761 0.028417733 0.0038972565
0.0069599017 0.0548407 -0.062439732 0.09282578 0.015623281 0.054770384 -0.07121901 -0.25790545
0.12920211 0.25136372 -0.023103978 0.088641405 0.075962506 0.20603742 0.103442505 0.019524267
0.045271855 -0.09813174 -0.022655416 0.022957548 0.01803766 0.04118856 0.031402934 0.078944206
0.089094624 0.052005228 -0.00501683 -0.09307522 -0.0818019 -0.027192824 -0.080857 -0.08967142
-0.09783075 -0.08286874 0.019070067 -0.15812398 -0.12355924 -0.10501197 0.043729566 0.00515809
0.013698027 -0.10406262 -0.15950738 -0.32928127 -0.073675856 0.076342516 0.31373897 0.25517756
-0.12710808 -0.039447114 0.15370423 0.26529303 0.18970476 -0.13361648 -0.17903188 0.2157416
0.101192206 0.082739644 -0.2023601 -0.17022009 -0.070929885 0.069392525 0.08364093 -0.15825783
-0.08129714 0.00205186 0.080240354 -0.064413644 0.06517164 -0.02090327 0.059820555 0.035304174
-0.0075404076 -0.03967828 -0.101255015 -0.007728833 -0.054451924 -0.0007747683 -0.04225725 0.014505875
0.035033792 -0.07341418 -0.105752684 -0.07299836 -0.11057126 -0.13366807 -0.108905494 -0.13930143
-0.03477303 -0.030078804 -0.11090243 -0.08475831 -0.08294989 0.1420237 -0.008147439 -0.08151314
-0.12180161 -0.1734285 -0.013315671 0.04567985 -0.14490311 0.014387261 0.13102083 0.059612207
0.088884935 0.16934136 0.15621842 0.19679034 0.11717857 0.20713305 0.23937303 0.028145067
0.01578463 -0.0036201295 -0.071323685 -0.023003101 -0.011019512 -0.013684354 0.11829795 0.02321549
0.0014898336 -0.072134316 -0.06436589 -0.049836118 0.015135995 -0.10562655 0.02738535 0.09256665
-0.036146574 -0.0034986415 0.02546159 0.02190214 0.0434455 0.022656478 -0.042786863 -0.09406698
-0.1771359 -0.3060552 -0.01118759 0.012733167 -0.13845612 -0.08656476 -0.19667748 0.20710456
-0.046053845 -0.017299935 0.02019695 -0.011466068 0.021726713 -0.0013706351 0.032991763 0.040067576
0.07492299 0.09493358 0.10765282 0.03070965 0.03494805 0.014116987 0.037986342 -0.0335967
-0.07874577 -0.07025763 -0.10666909 0.03265087 -0.10087347 -0.071265526 -0.13493013 -0.12108994
0.032668646 0.06349066 -0.034611143 -0.036893163 0.083393686 -0.043865375 -0.07276924 0.049335312
0.07456238 -0.06635335 -0.06560355 -0.1257877 -0.17097603 -0.12437095 -0.15266378 -0.08416402
-0.07544489 -0.08400622 -0.23158576 -0.15258032 -0.07938589 -0.06869934 0.026036298 -0.07493294
-0.15015784 0.10283345 -0.013564095 0.06484301 0.09384083 0.096527815 -0.23298319 -0.034983423
0.04308603 -0.008584771 0.048502117 -0.29030523 -0.13087723 0.0028771926 -0.022183212 0.02003246
-0.25700307 -0.028270565 -0.020873997 0.05770316 -0.12696615 -0.2666847 -0.16876128 0.0909149
0.05394103 0.002764105 0.0076481984 0.13969111 -0.000910223 -0.11651194 -0.046164937 0.08181612

4 f4 [20]
00000000: ad81 38bd a6fa 723d 3be9 833d 9f20 6a3d
00000010: 1fb8 963d 9d10 003e e66a 81bd f72f 043d
00000020: 175a 073d eb10 0c3e 8e7c e43d de3b c5bc
00000030: 2a02 06bd c8aa ea3c 7fed 1c3c 2d73 873c
00000040: 9cbd 9c3d 0629 043d 3fdb 90bc 4ccd 513d
-0.045045543 0.05932107 0.064409696 0.057160016 0.07359337 0.12506337 -0.063192174 0.032272305
0.0330449 0.13678329 0.111565694 -0.024076398 -0.032716908 0.028645888 0.009578108 0.016534412
0.076533526 0.032265685 -0.01768267 0.051221177

5 f4 [50, 320]
00000000: ab43 b83d 30c8 4bbb 9b27 9ebd 0912 4bbe
00000010: dad5 ce3c 24fa 073d 3f7c b2bd 4ac9 c9bb
00000020: 3e2b 403d 6026 d3bc 5952 6dbd 4929 063c
00000030: 3abc 6cbd d102 74bd 8ed4 833d f065 4d3d
00000040: 31eb 6cbe f6ee 143d 8033 dd3d aece 673e
00000050: f5fc a23c d05c 5c3d 073e 393d 8a84 b73d
00000060: fa69 093d 8b67 14be bff0 21bc d71d e4bc
00000070: 8ca9 d0bc ca6f 0cbb d5e0 273b ca9a b0bd
00000080: fb4f 88bc b081 c53c 2424 b9bc e781 2e3d
00000090: 9b28 8a3d dfbd c03d 82ca 11bd a59b 52bd
000000a0: b8ae 03bc f56e 95bd 05ce c63d b9eb ebbc
000000b0: 4e4c 95bc a876 7b3d 03b0 c63d 8d46 9dbd
000000c0: c219 8b3d cecc 57bd 1848 5fbd 4d3e 32be
000000d0: 9f69 41bc fa52 e8bd e539 58bb 9ae1 69bd
000000e0: ac02 b83c 35f6 aa3d bb32 e53d 2658 7dbd
000000f0: 8302 b3bd 3eef 1abd 84ff 22bd 2119 563d
00000100: e037 e13d 80f3 ee3d 9b50 d03d c0f0 d6ba
00000110: 6161 2a3d 4fc0 bfbd e64b 0bbe 7ff1 da3c
00000120: 48ab ebbd ca17 18be b4f0 753c b0f5 8e3c
00000130: 1b2a a03d 8ce4 783c 4619 943d e029 12be
00000140: ddc8 553d 33aa 5e3d 74e6 553d 88bf 963d
00000150: c3a1 053d 5ace 2f3d 30eb 57bd 2922 063d
00000160: bf58 eabd ab6f bebd 4303 2f3b 329f d6bc
00000170: 5010 cb3c f509 14bd 1f61 e9bd ae1d 39be
00000180: c671 413e 033e 243e de26 c43c 405f 8abe
00000190: af09 0e3d d6ab dd3c a1cd a33a 8c58 9dbd
000001a0: 0347 b2bd 777b 673d e268 a63d 2c31 45bd
000001b0: 2238 89bc 5eeb f4bc b0d1 563c 6817 a6bc
000001c0: 4acf bbbd 3c41 13be 383d e9bd 250f ddbd
000001d0: 8b62 323e c83b fd3d 4ff0 d53c de21 283d
000001e0: d1ef dabc 725c ef3d 67fe 64bd 26c3 68bd
000001f0: 3fc6 15bd 9313 26bd d4e2 9f3c 452c 5c3d
00000200: 2263 d23d c91d 9cbd c845 6bbc 777e 2a3e
00000210: 7779 0bbe e550 50bd 38cb 623d 920c bdbc
00000220: aa1a afbb 6bc6 1b3c 799e a0bd 481d 333d
00000230: a3fd 66bc a6ba 2c3d 78a5 1ebd f3bd 82bc
00000240: 1a28 be3d c6d4 febd ec39 88bc 7ee9 9bbd
00000250: 0231 333d dd1d 67ba a1ea 5b3d 1138 5abd
00000260: 03fc 64bd 73ce ce3b ccdc d33c 48f4 3bbd
00000270: 63ba 29bd 4797 513b 1e2c e6bb 0ebc 3abd
00000280: 1049 fdbc f0dd b4bd 4713 063c e2ec a13d
00000290: 5541 c8bb 7b76 55bc 3507 7ebd 3c44 663c
000002a0: 7b71 e63c 01cb 71bd bc4d a13d 9960 3d3d
000002b0: eb38 913d d6c5 423d e30f 8c3d c7a2 6b3d
000002c0: d46a 9bbd 50d3 8cbe 6769 cdbd 88cd 81bd
000002d0: 075e d53c 634b 473d be6b 303c 719f 53bd
000002e0: fc6c 5e3d 0114 573e b796 debd 6bb7 9c3d
000002f0: 74d7 9e3d 5279 953b 6e9f 043e 3986 1b3e
00000300: fc35 86bc a7a7 3cbe 211f 6abe 9da1 bbbd
00000310: fc86 ca3c 9771 a73c d5a1 cd3d 0e5a 90bd
00000320: 604a 7c3d 3eb0 e63d 57fd 5f3d ec58 e7bb
00000330: a467 1ebe ce36 45bc dd62 703d fcf8 2f3e
00000340: e033 3c3d 6c13 563c b526 0e3d 60fb f5bd
00000350: c204 773d b443 003d 3bab 0a3d 6672 a23d
00000360: 4d1f 61bc b26f 85bc ae68 253d 158b c7bd
00000370: de66 603d 666d e5bc 8830 853c d94a f3bd
00000380: e138 943d 2b87 fe3d 71e7 a53d 8e80 28bd
00000390: 521b 25be 8e7c 17bd 826c dd3c 159f 17bd
000003a0: 970d 1abe fc04 bbbd d077 c9bd 4c13 83bc
000003b0: 636d f7bc 06db 9c3b c242 023e 91f0 cbbd
000003c0: 0678 a13d 74ca 5bbd fcfc 5fbe b937 c7bd
000003d0: 9aee 5a3a d35b 2fbd 0095 dcbc c257 22be
000003e0: 0e9f db3b a629 a5bd b1e9 033d afe8 283d
000003f0: 4fdc e7b9 5612 ba3c 912a a4bc fc62 a9bc
0.08997282 -0.0031094663 -0.07722398 -0.19831099 0.025248457 0.033197537 -0.08715104 -0.0061580287
0.04691624 -0.025775135 -0.05793986 0.008188554 -0.057796694 -0.059573 0.06437026 0.050146043
-0.23136593 0.036360703 0.108008385 0.22637436 0.01989601 0.05379945 0.04522517 0.08960827
0.033548333 -0.14492624 -0.0098840585 -0.02784626 -0.025471471 -0.0021428936 0.0025616188 -0.08623274
-0.0166397 0.024109691 -0.022600241 0.042604353 0.06746026 0.09411215 -0.035593517 -0.051417965
-0.008037262 -0.07296554 0.09707264 -0.028798925 -0.018224861 0.061392456 0.0970154 -0.07679472
0.06792022 -0.05268555 -0.054512113 -0.17406578 -0.011804967 -0.113439515 -0.0032993492 -0.057099916
0.022462212 0.083477415 0.11191317 -0.061851643 -0.087407134 -0.037825815 -0.03979446 0.05227006
0.109969854 0.11667538 0.10171624 -0.0016398653 0.041596774 -0.09362852 -0.13603172 0.026726482
-0.11507279 -0.14852825 0.015011001 0.017451137 0.07820531 0.015191209 0.07231383 -0.14273787
0.05219351 0.054361533 0.05222173 0.073607504 0.03262497 0.0429214 -0.052714527 0.03274742
-0.11442708 -0.09298643 0.0026704825 -0.026198957 0.024788052 -0.03614231 -0.113954775 -0.18077728
0.18891057 0.1603928 0.023944315 -0.27025795 0.034677204 0.027059477 0.0012497195 -0.076829046
-0.08704951 0.05651423 0.081254736 -0.048142597 -0.016750399 -0.029897388 0.013111517 -0.020274833
-0.091703966 -0.14380354 -0.1138863 -0.10793904 0.17420404 0.12364918 0.026115565 0.041047923
-0.026725681 0.116875544 -0.05590668 -0.056826733 -0.036566015 -0.04054601 0.01951734 0.053753156
0.10272814 -0.076228686 -0.014359899 0.16649805 -0.13620554 -0.050858397 0.055369586 -0.023077283
-0.005343755 0.009507756 -0.07842726 0.043729097 -0.014098558 0.04217019 -0.038732022 -0.015959715
0.092849925 -0.12442927 -0.016629182 -0.076128945 0.04374791 -0.00088164007 0.053690556 -0.053276125
-0.0559044 0.0063112318 0.02586212 -0.04588726 -0.041437518 0.0031981037 -0.007024302 -0.0455895
-0.030918628 -0.08831394 0.008183307 0.0790651 -0.006111304 -0.013028736 -0.062018592 0.014054354
0.028130284 -0.05903149 0.07876155 0.0462347 0.07090934 0.047551952 0.06838968 0.057528283
-0.07588735 -0.2750497 -0.100298695 -0.0633803 0.026045812 0.04865588 0.010767875 -0.051665727
0.054303154 0.21003725 -0.1086859 0.07652172 0.07755938 0.0045615816 0.12951443 0.1518792
-0.016383164 -0.1842333 -0.22863437 -0.09161685 0.024722569 0.020439906 0.10040633 -0.070484266
0.061594367 0.11264084 0.054684963 -0.007060161 -0.15469223 -0.012036992 0.058688033 0.17184824
0.04594791 0.013066154 0.034704883 -0.120108366 0.06030727 0.031314567 0.033854704 0.07931976
-0.013740373 -0.016288612 0.040383033 -0.09743325 0.0547856 -0.028006267 0.016258493 -0.118795104
0.07237411 0.12428125 0.081007846 -0.041138224 -0.16123703 -0.03698402 0.02702928 -0.037016947
-0.15044247 -0.0913181 -0.098373055 -0.016000412 -0.030203527 0.004786852 0.12720779 -0.09957994
0.07884221 -0.05365987 -0.2187385 -0.09727425 0.00083515944 -0.04281218 -0.026926517 -0.1585379
0.0067023104 -0.080645844 0.032205287 0.04123753 -0.00044223896 0.022713821 -0.020039828 -0.020677082

6 f4 [50]
00000000: 4794 bd3d 3055 5dbb d7c4 f13c 9e4c 993c
00000010: 541c a93e 4fa6 653e 2f05 0f3d 3dfd a53d
00000020: 781b 233e 5666 993e cd42 933e 8a23 953c
00000030: 8b11 423b a04e aa3e fe3b 843e 124e 4a3e
00000040: b882 2b3e 0396 3b3d c57d ee3d bd64 1a3e
00000050: 4cac 873d 3f34 86bc dbc2 24bc 81d5 623e
00000060: 2cbc eebc a22a e8bd b817 363e 0ba9 5c3d
00000070: 438f 8c3e 1e1d 4f3d 4fff cc3d 9aee 423d
00000080: 8399 593e 1b14 4b3e c3aa ddbc 6dfc 9d3e
00000090: 0d3a 123e b286 fc3c 1f70 193e 27d8 593d
000000a0: 1a82 823d fd85 3d3d 2936 093d 9d73 eb3c
000000b0: caac d8bd fbe2 adbd afff 283d e4a4 333e
000000c0: 053a 22bc 1e70 cf3d
0.09256797 -0.00337727 0.029512806 0.018713292 0.33029425 0.22426723 0.034917053 0.08104942
0.15928447 0.2996089 0.28761902 0.018205423 0.0029612507 0.3326311 0.2582702 0.19756344
0.16749084 0.04579736 0.116450824 0.15077491 0.0662466 -0.016382335 -0.010056223 0.22151758
-0.029142462 -0.113362566 0.17782485 0.05387215 0.2745305 0.050564878 0.10009634 0.04759083
0.21249966 0.19831888 -0.027058965 0.30856648 0.14279957 0.030825946 0.14984177 0.053184655
0.06372471 0.04627036 0.033498917 0.028741652 -0.10579832 -0.08490559 0.041259464 0.1754337
-0.009901528 0.101288065

7 f4 [10, 50]
00000000: 236a df3d b718 24be 1046 74be e30f c5bd
00000010: ceeb 543e 5f47 dabe 61b1 7cbe 4d71 243e
00000020: f978 bbbd 9513 903c 1721 3ebe 3d9d b7bd
00000030: 6cc4 c53b c818 d5bd 1556 073e e805 413e
00000040: 4178 bbbe 245e 53be 72ce e23d 1d6e 733e
00000050: a1da c9bd e39c 5fbe 7fef 693c 7579 3c3e
00000060: e90c a0be ca41 d3bd 8db9 58be 57e1 f63d
00000070: 8c4a 993b 5a75 143e 457a 92be 0e6c 763e
00000080: 16a4 cd3d c358 00be 399c 3b3e 5d83 6fbe
00000090: 3ded fdbd 9b15 99be b031 bebd 6e8d 1e3d
000000a0: 036b 013e 3f41 0ebd cc0b 053e 9530 b23d
000000b0: e44a 8fbe 23bd e9bd 18d1 0d3e 400c 0dbe
000000c0: 80a5 9cbb 704e 2e3e 9cbe 6abe c6dd 0ebd
000000d0: 2e61 8a3d a59f b2be 36a6 343e d8a8 4b3e
000000e0: 69d5 acbe 5785 67be d889 f13d 9970 293e
000000f0: b86b 333e 8452 6abe 79e9 d9bc bac8 233e
00000100: bc98 2a3e 3858 103e f9e2 063e 74cc 963b
00000110: 6323 88be 7061 eabd 9ace 093e c0d5 4bbe
00000120: c943 9ebe 7752 92be 5c95 36be 68a6 9abd
00000130: 6a80 033e 14d9 59be 96d4 343e c7ca 02bc
00000140: b788 903d 7589 8cbe 3e1f aa3d f342 1c3e
00000150: 18a6 70be 0340 4b3e 6883 fe3c 8519 d7bd
00000160: d737 e03d d193 91be ee39 d33d 901e 5fbe
00000170: ccec 83be b95b 77be eae5 b6bd 3641 9fbd
00000180: 427e 043e f756 413e ab79 873d a565 45be
00000190: 9d3c f33c d5c9 093e 23e0 9ebe bc52 7ebe
000001a0: af7a 3ebe 217e 0abd 48a0 cbbd 7118 1e3e
000001b0: f21c b8be 40bd 98bd e56f 60be f264 033e
000001c0: 2982 583d fded 8fbd 41e4 343e c2c7 473e
000001d0: 6769 bcbd 9f61 013e dbad 44be e2d7 1a3e
000001e0: a6f4 1a3e 8c69 7cbe 4269 62be 410f 5cbd
000001f0: eb0b 33be 2640 0f3e bed9 f13d e3cf 633c
00000200: df72 1e3e 848e e63d 9f59 83be a4be e9bd
00000210: 77c3 62bd 878f 7c3d 1411 c6bd 497c 2bbe
00000220: d9b8 163e 2f61 183d 7e28 153e ff77 b5bd
00000230: 2518 113e 6444 19bd 3864 dabd ea65 aebd
00000240: 2ee6 13be 9db9 ea3d 2c84 093e b933 5b3e
00000250: ae49 1e3d 79bb 023e a115 ac3d 268b cf3d
00000260: 243e 153e 36fd f4bd 4ba4 e0bd b8f5 4a3e
00000270: 2631 c8bd f803 083d 771a a0bd 4f6a 97be
00000280: 6444 42be 0c18 4bbe 5a16 54bd fe74 75be
00000290: 3594 c1bd 6474 303e b293 12be 395f fa3d
000002a0: aed8 74be 0970 233d 5388 353e cfbb 263e
000002b0: 36e5 45bd 85cb 6cbe a0ac 2a3d 759b e13d
000002c0: fff6 1d3c 8130 c4bc af3a a83c adf6 093e
000002d0: a36a 373e cb07 febd 5926 1bbd 8ae5 48bd
000002e0: ea5a 173b e88b febd 99c5 68bd f354 023e
000002f0: 7ea1 05bd 4e23 94bd f445 1c3e e416 c5bd
00000300: fb03 cfbd eff4 6a3d 03e2 b03d 95c6 8e3d
00000310: fdd7 fe3d 875e b1bd 08cf 6a3d cd46 2e3d
00000320: ab83 45be 1a5d e93d 6d77 013d 518c 193e
00000330: 2f5d 02be a11d 30be 1548 d4bd 353f acbd
00000340: 6616 e33d 50dc 3d3e 0634 c33a df10 1f3e
00000350: 691e 323d 9f0f 533e 7bc3 3c3e 27c5 46be
00000360: 6f4b 073e 89d0 143e fff9 38be 8fb5 533e
00000370: dc2b f8bc f6c2 9d3d ebc6 31be d3fb 4b3e
00000380: 5dc9 9b3d 8a40 9bbe e1f3 873b be93 b8be
00000390: 744c 943d 113d 3fbe b8e2 a13d dbf7 a5ba
000003a0: e5c4 2f3e a61f b2bd 804c 8ebe c3d5 6d3d
000003b0: 2910 37be 1cd9 3cbd a560 12be 995b 2a3e
000003c0: 09d6 3cbe aeb9 993c 3b51 3fbe 5bef e7bd
000003d0: 8377 993d 6f31 48be e40a 5ebe a617 1abb
000003e0: 53af b3be 0741 d63d 871d adbd 464f cabd
000003f0: 7e70 123e a623 e03d 0b17 b3bc 62cc 4dbc
0.10908916 -0.16025053 -0.23854852 -0.09622171 0.20793077 -0.42632577 -0.2467704 0.16058846
-0.09153933 0.017587462 -0.1856731 -0.08965538 0.006035378 -0.10405117 0.13216431 0.1884991
-0.36615184 -0.2064138 0.110745326 0.23772474 -0.09856153 -0.21837191 0.014278292 0.18405707
-0.3125985 -0.10315283 -0.21164532 0.12054699 0.004678076 0.14497891 -0.2860891 0.24064657
0.100410625 -0.1253386 0.18321313 -0.23389955 -0.12398765 -0.29899296 -0.09286821 0.038709097
0.12638478 -0.034730192 0.12992781 0.087006725 -0.27986825 -0.11413028 0.13849294 -0.13774204
-0.0047804713 0.17022109 -0.22924274 -0.03487947 0.06756817 -0.34887424 0.1764153 0.19888628
-0.3375657 -0.22609459 0.1179387 0.16546859 0.1752156 -0.2288304 -0.026600586 0.1599454
0.16659826 0.14096153 0.1317252 0.0046020094 -0.26589498 -0.11444366 0.13457718 -0.19905758
-0.3091109 -0.2857854 -0.17830414 -0.07551271 0.12841955 -0.21274215 0.1765922 -0.007982916
0.07057326 -0.2744862 0.0830674 0.15259914 -0.2350086 0.19848637 0.031068519 -0.10502914
0.109481506 -0.28433087 0.103137836 -0.21789002 -0.257666 -0.24156083 -0.089305714 -0.0777611
0.12938789 0.1888083 0.06615003 -0.19277056 0.029691989 0.13455899 -0.31030378 -0.24836248
-0.18601488 -0.033811692 -0.099426806 0.15439011 -0.35959584 -0.074579716 -0.21917684 0.12831476
0.052858505 -0.070278145 0.17665197 0.19509795 -0.091997914 0.12634896 -0.19206946 0.15121415
0.15132388 -0.24649638 -0.22110465 -0.053725485 -0.17485015 0.13989314 0.11809109 0.0139045445
0.15473507 0.112576514 -0.25654313 -0.11413315 -0.05536219 0.061660316 -0.09671226 -0.1674663
0.14718951 0.037202056 0.14566228 -0.08860778 0.14169367 -0.037418738 -0.106636465 -0.08515532
-0.14443275 0.11461184 0.13429326 0.2140645 0.038644485 0.12766828 0.08402563 0.10133962
0.14574486 -0.11962359 -0.109688364 0.19820297 -0.09774999 0.03320691 -0.07817548 -0.29573295
-0.18971401 -0.19833392 -0.05177913 -0.2397041 -0.094520964 0.172319 -0.14314154 0.122251935
-0.23910782 0.039901767 0.17727785 0.16282581 -0.048314296 -0.23124512 0.041668534 0.11015979
0.009641408 -0.02394891 0.020535795 0.13473006 0.17911772 -0.1240383 -0.037878368 -0.04904703
0.002309496 -0.12429029 -0.05682907 0.12727718 -0.032624714 -0.07233296 0.1526106 -0.09623507
-0.10108181 0.057362493 0.08636858 0.0697147 0.1244354 -0.08660608 0.057326347 0.04254799
-0.19288509 0.11394711 0.031608034 0.14994933 -0.12730859 -0.17198803 -0.10365311 -0.08410493
0.110882565 0.18541074 0.0014892824 0.1553378 0.043486033 0.20611428 0.18433945 -0.19411145
0.1321237 0.14532675 -0.18064116 0.20674728 -0.030294351 0.077032015 -0.17361037 0.19920282
0.076067664 -0.30322677 0.0041489457 -0.36050218 0.07241145 -0.18675639 0.07904571 -0.0012662368
0.17164953 -0.08697443 -0.2779274 0.058065187 -0.17877258 -0.04610549 -0.1429468 0.16636504
-0.18441023 0.018765297 -0.1868333 -0.1132495 0.07493498 -0.19550107 -0.21683842 -0.002351263
-0.350947 0.10461622 -0.084528975 -0.098784015 0.14300725 0.109442994 -0.021861574 -0.012560936

8 f4 [10]
00000000: b467 bb3e a959 d53e 1bcc 32bd 00d7 d6bd
00000010: d215 623e d390 53be 7b2e 42be ca2b 273d
00000020: d78b a63d cabc 00bd
0.36602557 0.41669968 -0.04365168 -0.10490227 0.22078636 -0.20660715 -0.18963043 0.040813245
0.08132141 -0.031430043
